…
    "#this model is to processes sequences of length 30 which is the features held before that aims to predict binary outcomes using Conv1D layers"
   ]
  },
  {
   "cell_type": "code",
   "execution_count": 14,
   "id": "9a50c7f6-bc59-42a7-befc-7614ef84ed96",
   "metadata": {},
   "outputs": [
    {
     "name": "stdout",
     "output_type": "stream",
     "text": [
      "Model: \"sequential\"\n",
      "_________________________________________________________________\n",
      " Layer (type)                Output Shape              Param #   \n",
      "=================================================================\n",
      " conv1d (Conv1D)             (None, 29, 16)            48        \n",
      "                                                                 \n",
      " batch_normalization (Batch  (None, 29, 16)            64        \n",
      " Normalization)                                                  \n",
      "                                                                 \n",
      " dropout (Dropout)           (None, 29, 16)            0         \n",
      "                                                                 \n",
      " conv1d_1 (Conv1D)           (None, 28, 32)            1056      \n",
      "                                                                 \n",
      " batch_normalization_1 (Bat  (None, 28, 32)            128       \n",
      " chNormalization)                                                \n",
      "                                                                 \n",
      " dropout_1 (Dropout)         (None, 28, 32)            0         \n",
      "                                                                 \n",
      " flatten (Flatten)           (None, 896)               0         \n",
      "                                                                 \n",
      " dense (Dense)               (None, 32)                28704     \n",
      "                                                                 \n",
      " dropout_2 (Dropout)         (None, 32)                0         \n",
      "                                                                 \n",
      " dense_1 (Dense)             (None, 1)                 33        \n",
      "                                                                 \n",
      "=================================================================\n",
      "Total params: 30033 (117.32 KB)\n",
      "Trainable params: 29937 (116.94 KB)\n",
      "Non-trainable params: 96 (384.00 Byte)\n",
      "_________________________________________________________________\n"
     ]
    }
   ],
…
